…
2024-08-31 23:53:28,659 INFO: Dataset [PairedImageDataset] - B100 is built.
2024-08-31 23:53:28,659 INFO: Number of test images in B100: 100
2024-08-31 23:53:28,662 INFO: Dataset [PairedImageDataset] - Urban100 is built.
2024-08-31 23:53:28,662 INFO: Number of test images in Urban100: 100
2024-08-31 23:53:28,664 INFO: Dataset [PairedImageDataset] - Manga109 is built.
2024-08-31 23:53:28,664 INFO: Number of test images in Manga109: 109
2024-08-31 23:53:28,859 INFO: Network [SwinIR] is created.
2024-08-31 23:53:29,256 INFO: Network: SwinIR, with parameters: 910,152
2024-08-31 23:53:29,256 INFO: SwinIR(
  (conv_first): Conv2d(3, 60, kernel_size=(3, 3), stride=(1, 1), padding=(1, 1))
  (patch_embed): PatchEmbed(
    (norm): LayerNorm((60,), eps=1e-05, elementwise_affine=True)
  )
  (patch_unembed): PatchUnEmbed()
  (pos_drop): Dropout(p=0.0, inplace=False)
  (layers): ModuleList(
    (0): RSTB(
      (residual_group): BasicLayer(
        dim=60, input_resolution=(64, 64), depth=6
        (blocks): ModuleList(
          (0): SwinTransformerBlock(
            dim=60, input_resolution=(64, 64), num_heads=6, window_size=8, shift_size=0, mlp_ratio=2
            (norm1): LayerNorm((60,), eps=1e-05, elementwise_affine=True)
            (attn): WindowAttention(
              dim=60, window_size=(8, 8), num_heads=6
              (qkv): Linear(in_features=60, out_features=180, bias=True)
              (attn_drop): Dropout(p=0.0, inplace=False)
              (proj): Linear(in_features=60, out_features=60, bias=True)
              (proj_drop): Dropout(p=0.0, inplace=False)
              (softmax): Softmax(dim=-1)
            )
            (drop_path): Identity()
            (norm2): LayerNorm((60,), eps=1e-05, elementwise_affine=True)
            (mlp): Mlp(
              (fc1): Linear(in_features=60, out_features=120, bias=True)
              (act): GELU(approximate='none')
              (fc2): Linear(in_features=120, out_features=60, bias=True)
              (drop): Dropout(p=0.0, inplace=False)
            )
          )
          (1): SwinTransformerBlock(
            dim=60, input_resolution=(64, 64), num_heads=6, window_size=8, shift_size=4, mlp_ratio=2
            (norm1): LayerNorm((60,), eps=1e-05, elementwise_affine=True)
            (attn): WindowAttention(
              dim=60, window_size=(8, 8), num_heads=6
              (qkv): Linear(in_features=60, out_features=180, bias=True)
              (attn_drop): Dropout(p=0.0, inplace=False)
              (proj): Linear(in_features=60, out_features=60, bias=True)
              (proj_drop): Dropout(p=0.0, inplace=False)
              (softmax): Softmax(dim=-1)
            )
            (drop_path): DropPath()
            (norm2): LayerNorm((60,), eps=1e-05, elementwise_affine=True)
            (mlp): Mlp(
              (fc1): Linear(in_features=60, out_features=120, bias=True)
              (act): GELU(approximate='none')
              (fc2): Linear(in_features=120, out_features=60, bias=True)
              (drop): Dropout(p=0.0, inplace=False)
            )
          )
          (2): SwinTransformerBlock(
            dim=60, input_resolution=(64, 64), num_heads=6, window_size=8, shift_size=0, mlp_ratio=2
            (norm1): LayerNorm((60,), eps=1e-05, elementwise_affine=True)
            (attn): WindowAttention(
              dim=60, window_size=(8, 8), num_heads=6
              (qkv): Linear(in_features=60, out_features=180, bias=True)
              (attn_drop): Dropout(p=0.0, inplace=False)
              (proj): Linear(in_features=60, out_features=60, bias=True)
              (proj_drop): Dropout(p=0.0, inplace=False)
              (softmax): Softmax(dim=-1)
            )
            (drop_path): DropPath()
            (norm2): LayerNorm((60,), eps=1e-05, elementwise_affine=True)
            (mlp): Mlp(
              (fc1): Linear(in_features=60, out_features=120, bias=True)
              (act): GELU(approximate='none')
              (fc2): Linear(in_features=120, out_features=60, bias=True)
              (drop): Dropout(p=0.0, inplace=False)
            )
          )
          (3): SwinTransformerBlock(
            dim=60, input_resolution=(64, 64), num_heads=6, window_size=8, shift_size=4, mlp_ratio=2
            (norm1): LayerNorm((60,), eps=1e-05, elementwise_affine=True)
            (attn): WindowAttention(
              dim=60, window_size=(8, 8), num_heads=6
              (qkv): Linear(in_features=60, out_features=180, bias=True)
              (attn_drop): Dropout(p=0.0, inplace=False)
              (proj): Linear(in_features=60, out_features=60, bias=True)
              (proj_drop): Dropout(p=0.0, inplace=False)
              (softmax): Softmax(dim=-1)
            )
            (drop_path): DropPath()
            (norm2): LayerNorm((60,), eps=1e-05, elementwise_affine=True)
            (mlp): Mlp(
              (fc1): Linear(in_features=60, out_features=120, bias=True)
              (act): GELU(approximate='none')
              (fc2): Linear(in_features=120, out_features=60, bias=True)
              (drop): Dropout(p=0.0, inplace=False)
            )
          )
          (4): SwinTransformerBlock(
            dim=60, input_resolution=(64, 64), num_heads=6, window_size=8, shift_size=0, mlp_ratio=2
            (norm1): LayerNorm((60,), eps=1e-05, elementwise_affine=True)
            (attn): WindowAttention(
              dim=60, window_size=(8, 8), num_heads=6
              (qkv): Linear(in_features=60, out_features=180, bias=True)
              (attn_drop): Dropout(p=0.0, inplace=False)
              (proj): Linear(in_features=60, out_features=60, bias=True)
              (proj_drop): Dropout(p=0.0, inplace=False)
              (softmax): Softmax(dim=-1)
            )
            (drop_path): DropPath()
            (norm2): LayerNorm((60,), eps=1e-05, elementwise_affine=True)
            (mlp): Mlp(
              (fc1): Linear(in_features=60, out_features=120, bias=True)
              (act): GELU(approximate='none')
              (fc2): Linear(in_features=120, out_features=60, bias=True)
              (drop): Dropout(p=0.0, inplace=False)
            )
          )
          (5): SwinTransformerBlock(
            dim=60, input_resolution=(64, 64), num_heads=6, window_size=8, shift_size=4, mlp_ratio=2
            (norm1): LayerNorm((60,), eps=1e-05, elementwise_affine=True)
            (attn): WindowAttention(
              dim=60, window_size=(8, 8), num_heads=6
              (qkv): Linear(in_features=60, out_features=180, bias=True)
              (attn_drop): Dropout(p=0.0, inplace=False)
              (proj): Linear(in_features=60, out_features=60, bias=True)
              (proj_drop): Dropout(p=0.0, inplace=False)
              (softmax): Softmax(dim=-1)
            )
            (drop_path): DropPath()
            (norm2): LayerNorm((60,), eps=1e-05, elementwise_affine=True)
            (mlp): Mlp(
              (fc1): Linear(in_features=60, out_features=120, bias=True)
              (act): GELU(approximate='none')
              (fc2): Linear(in_features=120, out_features=60, bias=True)
              (drop): Dropout(p=0.0, inplace=False)
            )
          )
        )
      )
      (conv): Conv2d(60, 60, kernel_size=(3, 3), stride=(1, 1), padding=(1, 1))
      (patch_embed): PatchEmbed()
      (patch_unembed): PatchUnEmbed()
    )
    (1-3): 3 x RSTB(
      (residual_group): BasicLayer(
        dim=60, input_resolution=(64, 64), depth=6
        (blocks): ModuleList(
          (0): SwinTransformerBlock(
            dim=60, input_resolution=(64, 64), num_heads=6, window_size=8, shift_size=0, mlp_ratio=2
            (norm1): LayerNorm((60,), eps=1e-05, elementwise_affine=True)
            (attn): WindowAttention(
              dim=60, window_size=(8, 8), num_heads=6
              (qkv): Linear(in_features=60, out_features=180, bias=True)
              (attn_drop): Dropout(p=0.0, inplace=False)
              (proj): Linear(in_features=60, out_features=60, bias=True)
              (proj_drop): Dropout(p=0.0, inplace=False)
              (softmax): Softmax(dim=-1)
            )
            (drop_path): DropPath()
            (norm2): LayerNorm((60,), eps=1e-05, elementwise_affine=True)
            (mlp): Mlp(
              (fc1): Linear(in_features=60, out_features=120, bias=True)
              (act): GELU(approximate='none')
              (fc2): Linear(in_features=120, out_features=60, bias=True)
              (drop): Dropout(p=0.0, inplace=False)
            )
          )
          (1): SwinTransformerBlock(
            dim=60, input_resolution=(64, 64), num_heads=6, window_size=8, shift_size=4, mlp_ratio=2
            (norm1): LayerNorm((60,), eps=1e-05, elementwise_affine=True)
            (attn): WindowAttention(
              dim=60, window_size=(8, 8), num_heads=6
              (qkv): Linear(in_features=60, out_features=180, bias=True)
              (attn_drop): Dropout(p=0.0, inplace=False)
              (proj): Linear(in_features=60, out_features=60, bias=True)
              (proj_drop): Dropout(p=0.0, inplace=False)
              (softmax): Softmax(dim=-1)
            )
            (drop_path): DropPath()
            (norm2): LayerNorm((60,), eps=1e-05, elementwise_affine=True)
            (mlp): Mlp(
              (fc1): Linear(in_features=60, out_features=120, bias=True)
              (act): GELU(approximate='none')
              (fc2): Linear(in_features=120, out_features=60, bias=True)
              (drop): Dropout(p=0.0, inplace=False)
            )
          )
          (2): SwinTransformerBlock(
            dim=60, input_resolution=(64, 64), num_heads=6, window_size=8, shift_size=0, mlp_ratio=2
            (norm1): LayerNorm((60,), eps=1e-05, elementwise_affine=True)
            (attn): WindowAttention(
              dim=60, window_size=(8, 8), num_heads=6
              (qkv): Linear(in_features=60, out_features=180, bias=True)
              (attn_drop): Dropout(p=0.0, inplace=False)
              (proj): Linear(in_features=60, out_features=60, bias=True)
              (proj_drop): Dropout(p=0.0, inplace=False)
              (softmax): Softmax(dim=-1)
            )
            (drop_path): DropPath()
            (norm2): LayerNorm((60,), eps=1e-05, elementwise_affine=True)
            (mlp): Mlp(
              (fc1): Linear(in_features=60, out_features=120, bias=True)
              (act): GELU(approximate='none')
              (fc2): Linear(in_features=120, out_features=60, bias=True)
              (drop): Dropout(p=0.0, inplace=False)
            )
          )
          (3): SwinTransformerBlock(
            dim=60, input_resolution=(64, 64), num_heads=6, window_size=8, shift_size=4, mlp_ratio=2
            (norm1): LayerNorm((60,), eps=1e-05, elementwise_affine=True)
            (attn): WindowAttention(
              dim=60, window_size=(8, 8), num_heads=6
              (qkv): Linear(in_features=60, out_features=180, bias=True)
              (attn_drop): Dropout(p=0.0, inplace=False)
              (proj): Linear(in_features=60, out_features=60, bias=True)
              (proj_drop): Dropout(p=0.0, inplace=False)
              (softmax): Softmax(dim=-1)
            )
            (drop_path): DropPath()
            (norm2): LayerNorm((60,), eps=1e-05, elementwise_affine=True)
            (mlp): Mlp(
              (fc1): Linear(in_features=60, out_features=120, bias=True)
              (act): GELU(approximate='none')
              (fc2): Linear(in_features=120, out_features=60, bias=True)
              (drop): Dropout(p=0.0, inplace=False)
            )
          )
          (4): SwinTransformerBlock(
            dim=60, input_resolution=(64, 64), num_heads=6, window_size=8, shift_size=0, mlp_ratio=2
            (norm1): LayerNorm((60,), eps=1e-05, elementwise_affine=True)
            (attn): WindowAttention(
              dim=60, window_size=(8, 8), num_heads=6
              (qkv): Linear(in_features=60, out_features=180, bias=True)
              (attn_drop): Dropout(p=0.0, inplace=False)
              (proj): Linear(in_features=60, out_features=60, bias=True)
              (proj_drop): Dropout(p=0.0, inplace=False)
              (softmax): Softmax(dim=-1)
            )
            (drop_path): DropPath()
            (norm2): LayerNorm((60,), eps=1e-05, elementwise_affine=True)
            (mlp): Mlp(
              (fc1): Linear(in_features=60, out_features=120, bias=True)
              (act): GELU(approximate='none')
              (fc2): Linear(in_features=120, out_features=60, bias=True)
              (drop): Dropout(p=0.0, inplace=False)
            )
          )
          (5): SwinTransformerBlock(
            dim=60, input_resolution=(64, 64), num_heads=6, window_size=8, shift_size=4, mlp_ratio=2
            (norm1): LayerNorm((60,), eps=1e-05, elementwise_affine=True)
            (attn): WindowAttention(
              dim=60, window_size=(8, 8), num_heads=6
              (qkv): Linear(in_features=60, out_features=180, bias=True)
              (attn_drop): Dropout(p=0.0, inplace=False)
              (proj): Linear(in_features=60, out_features=60, bias=True)
              (proj_drop): Dropout(p=0.0, inplace=False)
              (softmax): Softmax(dim=-1)
            )
            (drop_path): DropPath()
            (norm2): LayerNorm((60,), eps=1e-05, elementwise_affine=True)
            (mlp): Mlp(
              (fc1): Linear(in_features=60, out_features=120, bias=True)
              (act): GELU(approximate='none')
              (fc2): Linear(in_features=120, out_features=60, bias=True)
              (drop): Dropout(p=0.0, inplace=False)
            )
          )
        )
      )
      (conv): Conv2d(60, 60, kernel_size=(3, 3), stride=(1, 1), padding=(1, 1))
      (patch_embed): PatchEmbed()
      (patch_unembed): PatchUnEmbed()
    )
  )
  (norm): LayerNorm((60,), eps=1e-05, elementwise_affine=True)
  (conv_after_body): Conv2d(60, 60, kernel_size=(3, 3), stride=(1, 1), padding=(1, 1))
  (upsample): UpsampleOneStep(
    (0): Conv2d(60, 12, kernel_size=(3, 3), stride=(1, 1), padding=(1, 1))
    (1): PixelShuffle(upscale_factor=2)
  )
)
2024-08-31 23:53:29,281 INFO: Loading SwinIR model from /data/pretrained/SwinIR/002_lightweightSR_DIV2K_s64w8_SwinIR-S_x2.pth, with param key: [params].
2024-08-31 23:53:29,643 INFO: Model [SwinIRModel] is created.
2024-08-31 23:53:29,644 INFO: Testing Set5...
2024-08-31 23:53:31,793 INFO: Validation Set5
…
